Week 11/best_heart_model.pth (torch, 6296 bytes, 4 tensors)

model.0.weight f4 [64, 13]
000000 67 8d 04 c1 11 ba 5b c0 2a 0f f6 c0 6f 4f 0a c1
       -8.284522 -3.4332316 -7.689351 -8.644393
000010 6e ab 43 be 44 d7 04 c1 01 72 fb 40 0b 69 28 c1
       -0.19108364 -8.302555 7.8576665 -10.525645
000020 47 77 2f 41 16 1a 50 40 04 c6 29 40 93 1f 8d c0
       10.96662 3.2515922 2.652711 -4.4101043
000030 49 48 ec 40 ba af 81 40 8c d8 5a c1 c8 c6 f5 40
       7.383824 4.052701 -13.677868 7.6805153
000040 e0 83 78 40 58 43 52 c0 a8 2c 78 41 5c 69 05 c1
       3.883049 -3.2853603 15.510902 -8.3382225
000050 46 71 ad 40 be 4d ce c0 ba df 03 c1 df 67 e0 40
       5.4200773 -6.44699 -8.242121 7.0126796
000060 15 43 15 c1 7f ce fe c0 23 4b 3c 3e 13 7f 12 c1
       -9.328877 -7.962707 0.18388037 -9.156024
000070 0c e6 82 40 86 4a c5 c0 c3 d2 42 c0 a6 3c 02 c1
       4.090582 -6.165347 -3.0441139 -8.139807
000080 58 07 ec c0 8d 39 5a c0 63 30 ab 40 6b 28 57 c0
       -7.3758965 -3.4097626 5.3496566 -3.361842
000090 84 53 9d 3f 7a 4e 4a c1 35 0d ce c0 26 d7 da c0
       1.2291112 -12.644159 -6.439112 -6.838763
0000a0 30 52 a0 c0 9f f7 28 c0 02 0c d3 c0 0b b3 0f c0
       -5.0100327 -2.6401136 -6.595216 -2.245303
0000b0 e0 e7 80 c0 18 ae ea 40 c6 c3 93 c0 70 3d dd bf
       -4.028305 7.3337517 -4.617648 -1.7284374
0000c0 32 06 86 41 b5 00 a3 c1 22 36 84 40 e8 91 ca c0
       16.753025 -20.375345 4.131608 -6.330311
0000d0 d2 28 a3 3f 3f f1 e5 40 39 99 52 c1 36 4d c2 c0
       1.2746832 7.185699 -13.162408 -6.071925
0000e0 ae 5f 5b 40 25 3d 3c c0 7a 85 d3 40 aa 8c 30 c1
       3.4277148 -2.941232 6.6100435 -11.034342
0000f0 d2 f2 d5 3f 9b 99 af 41 b0 d8 02 c1 71 b5 90 40
       1.6714728 21.950003 -8.177902 4.5221486
000100 f9 05 0b 41 b4 de a9 bf f1 f3 63 c1 bb 1a b8 40
       8.688958 -1.3271089 -14.247056 5.753263
000110 fa b2 b6 bf f5 31 b8 3f a8 31 0b c0 4c 58 4b 3f
       -1.4273369 1.4390246 -2.1749058 0.79431605
000120 cb 79 c9 40 b3 6b 0b c1 64 3d cf c0 58 2a b3 41
       6.2961173 -8.713794 -6.476244 22.395676
000130 ac a7 0f 41 d2 e6 cb c0 51 5e f6 40 5a 30 42 c1
       8.9784355 -6.3719263 7.699013 -12.136805
000140 41 59 4a bf bd a1 38 41 60 7e a4 40 41 64 a2 40
       -0.7904244 11.539487 5.1404266 5.074738
000150 6e 88 01 c1 03 38 38 c1 eb f9 0a 41 ff 24 5f 3f
       -8.095808 -11.513675 8.686015 0.87165827
000160 5b 3b 4c c0 f9 a8 ba 40 95 6c b4 bc f4 c4 2b c1
       -3.1911228 5.8331265 -0.022024432 -10.735584
000170 29 92 6b 3e fd 4a c2 c0 6c 06 d8 bd f9 c1 97 40
       0.23004974 -6.071654 -0.105481 4.7424283
000180 b1 6d 11 c1 ce c9 75 41 c8 c9 bf c0 ec 23 49 be
       -9.08928 15.361769 -5.9933815 -0.1964261
000190 05 43 0b 41 94 b2 0f 40 62 eb 80 41 32 49 e5 40
       8.703862 2.2452745 16.114933 7.165185
0001a0 aa ab 04 c1 69 fb fc c0 f0 4a 64 c0 04 79 bd c0
       -8.29191 -7.9056897 -3.5670738 -5.9210224
0001b0 c7 43 31 40 c6 0b 0b c1 27 ca 00 41 ec 6b cc c0
       2.7697618 -8.690374 8.049354 -6.388174
0001c0 76 0f 8c 3d eb 60 64 41 4d 8e 7c c0 af f4 17 c1
       0.068388864 14.273662 -3.9461854 -9.497237
0001d0 97 1b 8f 41 46 17 6d 40 24 a3 da c0 97 c8 f2 c0
       17.888472 3.7045455 -6.8324146 -7.586986
0001e0 f1 87 65 c1 6e 4e b3 40 d7 31 08 c1 82 05 18 41
       -14.345689 5.603324 -8.512168 9.501345
0001f0 5b c8 13 c1 e8 b7 94 40 de 14 49 c0 5d ed 5a 41
       -9.236415 4.6474495 -3.1418986 13.68295
000200 95 4f 4d c1 9e 9f 6b 3e f9 b0 a8 40 b6 a0 79 c1
       -12.831929 0.23010108 5.271603 -15.601736
000210 19 c7 23 c1 04 35 1b 40 a0 58 c1 c0 30 1e ef 40
       -10.236108 2.4251108 -6.0420685 7.472435
000220 e7 32 01 c1 08 14 04 c1 29 4b 6e 41 73 a9 fa be
       -8.074927 -8.25489 14.89335 -0.48957404
000230 c2 01 02 40 06 13 4f c0 7e ba 43 c1 c8 12 f5 3f
       2.0313573 -3.235536 -12.23303 1.9146357
000240 2c 43 1b c0 0e d9 a9 c0 74 6b a9 c0 f1 ed 08 c0
       -2.4259748 -5.307746 -5.294367 -2.1395228
000250 2a 25 38 c1 e3 03 13 41 39 74 82 c1 f9 fc b9 40
       -11.509073 9.188449 -16.30675 5.8121305
000260 c0 b2 6f 41 66 b0 6d c1 ae 69 bb 40 9f f9 db bf
       14.98114 -14.855566 5.8566504 -1.7185553
000270 0e 38 81 be 70 1d 98 c0 d4 35 09 c1 70 1f 80 40
       -0.2523808 -4.7535934 -8.575642 4.0038376
000280 71 b2 8f 41 e1 e7 34 c1 fe 40 a9 40 8e a9 60 c0
       17.96213 -11.306611 5.2891836 -3.5103488
000290 07 46 3e c0 14 04 19 41 e4 9e 85 c0 14 e2 93 c0
       -2.9730241 9.563496 -4.175646 -4.6213474
0002a0 4f 42 3c 41 85 66 77 c0 29 69 fc 40 8c e2 1e 41
       11.766189 -3.8656323 7.887837 9.930309
0002b0 77 c1 36 c0 d8 46 33 c1 56 34 2f 41 a7 fd fb c0
       -2.8555582 -11.204796 10.950277 -7.8747134
0002c0 b5 2a 27 41 37 a1 14 c1 c6 1c 2a c1 09 f8 5f 41
       10.4479265 -9.289359 -10.632025 13.998055
0002d0 d6 bf 78 c0 a3 ef 9c bf 0d d7 c1 3f 46 34 33 c1
       -3.8867087 -1.2260631 1.5143753 -11.200262
0002e0 a4 33 d8 40 27 02 43 3f 61 4a 99 3f 71 4e 7c 41
       6.756304 0.7617516 1.1975824 15.769151
0002f0 bc 28 a9 c0 cf bd 38 41 3f a7 21 c0 6a be 4f c1
       -5.2862225 11.54634 -2.525833 -12.983988
000300 92 74 e3 be 67 e4 d6 c0 c9 9e 15 c1 92 b5 2a c1
       -0.44424874 -6.715381 -9.351266 -10.669329
000310 2c f6 d6 bf 23 bd 11 c1 32 de d4 c0 5f 11 bb 40
       -1.6793876 -9.108676 -6.6521235 5.8458705
000320 c1 b3 46 c0 4d 6e 31 41 52 29 fe c0 ca 2c 23 41
       -3.1047213 11.089429 -7.942544 10.198435
000330 24 5f 8a 41 73 f5 5d c1 96 6b 8c bf 5a 36 6c bf
       17.296455 -13.872424 -1.0970333 -0.92270434
000340 88 0b 37 c0 9b cd 4c c1 04 21 2d c0 ab 5e c3 c0
       -2.8600788 -12.800197 -2.70514 -6.105306
000350 01 59 1e 41 36 b6 00 c1 49 74 4a 41 d0 9b 12 c1
       9.896729 -8.044485 12.65339 -9.16304
000360 e5 39 9e 40 ea 5f 5f 41 7d 6c 5d 3f 6f f6 13 c0
       4.944567 13.9609165 0.86493665 -2.311916
000370 f0 60 99 3f 74 3f e8 c0 c7 fa e4 c0 98 b2 f8 c0
       1.1982708 -7.2577457 -7.1556125 -7.771801
000380 91 8d 02 c1 cd e6 b6 40 91 ec 03 c1 00 42 ea 40
       -8.159562 5.715674 -8.245255 7.3205566
000390 21 a3 0c c1 75 3e 31 41 01 2e 19 40 4e e5 10 41
       -8.789826 11.077748 2.3934329 9.055983
0003a0 5d f1 d6 c0 d4 be bf 40 fa bf 4d 41 4a 1b 25 c0
       -6.7169633 5.9920444 12.859369 -2.5797906
0003b0 47 47 9f 40 b8 95 94 41 48 0b 90 40 51 fa 26 41
       4.977451 18.573105 4.501377 10.436112
0003c0 c7 3c 32 c1 4f b1 31 be 66 3f 06 bf ab 09 85 40
       -11.139838 -0.17352794 -0.5244049 4.15743
0003d0 7e 9d f5 c0 71 d8 50 c0 fa cc 19 c0 c9 28 66 41
       -7.675475 -3.2632105 -2.4031358 14.384957
0003e0 5c 24 2f c1 16 ec cf 3f 0f c0 4d 41 d7 bd 14 c1
       -10.946377 1.6243923 12.859389 -9.296348
0003f0 e6 cc 37 41 6a 22 b1 c0 0d f5 59 40 04 25 f0 3f
       11.487524 -5.535451 3.4055817 1.8761296

model.0.bias f4 [64]
000000 0f 49 48 c0 10 d3 40 c0 6e e3 7e c0 5d 4e 02 c1
       -3.1294591 -3.0128822 -3.9826312 -8.144132
000010 a7 7d c7 c0 83 86 73 c0 33 14 85 c0 bb fe 95 c0
       -6.2340884 -3.805085 -4.1587157 -4.687345
000020 bd 5d ef bf 72 9d 30 bf b5 12 3a c0 4e b7 e7 c0
       -1.8700482 -0.6899024 -2.9073918 -7.241126
000030 e9 12 e4 c0 20 cf e3 bf 57 9b 73 c0 91 1e 2c c1
       -7.1273084 -1.7797585 -3.8063562 -10.7574625
000040 4e 88 80 c0 77 d2 31 c0 a0 cf 06 c1 4c 91 ee c0
       -4.0166388 -2.7784708 -8.42569 -7.4552364
000050 47 c3 10 c0 9c 20 ab c0 7f 84 c8 c0 17 b1 41 c0
       -2.2619188 -5.3477306 -6.266174 -3.0264337
000060 59 c1 b0 c0 eb 0d 3a c0 35 2c a2 c0 71 e1 81 c0
       -5.523602 -2.9070995 -5.0678964 -4.0587697
000070 17 78 ac c0 b6 c9 a8 c0 17 8d c5 c0 cf bc c2 c0
       -5.3896594 -5.274623 -6.173473 -6.085548
000080 b8 ec c1 bf cd 44 61 c0 c1 6a c7 c1 80 3a c5 3f
       -1.5150366 -3.5198243 -24.927126 1.5408478
000090 71 e4 2b c1 b9 df e7 bf 6d 0e a0 c0 59 3c 72 3f
       -10.743272 -1.811515 -5.001761 0.94623333
0000a0 5b dc 80 c0 e8 e7 f1 bf 6e 6d 23 c0 09 97 67 c0
       -4.026899 -1.8898897 -2.553554 -3.6185935
0000b0 40 4e b4 bf 8c a3 27 c0 9a 8e 93 bf e0 79 ba c0
       -1.408638 -2.619357 -1.1527894 -5.8273773
0000c0 7d 96 f7 c0 50 31 06 40 9e 1f 28 c0 d4 71 d5 c0
       -7.73712 2.0967598 -2.6269298 -6.670145
0000d0 d7 9c 3f c1 6e 8e c8 c0 54 67 09 c1 23 50 75 c0
       -11.975791 -6.2673864 -8.587727 -3.8330162
0000e0 6b 55 90 bf a6 0b 09 c1 bd dd 50 c0 27 ee 93 c0
       -1.1276067 -8.565344 -3.2635338 -4.6228213
0000f0 56 3d 82 c0 c6 ba 9b bf d2 b2 35 c0 46 da 20 c1
       -4.0699873 -1.2166374 -2.8390393 -10.053289

model.2.weight f4 [2, 64]
000000 fa a3 c8 3f 51 47 1a 40 7d f7 dc 3e 2d 43 db 3f
       1.5675042 2.4106028 0.4315757 1.7129875
000010 c8 2a e1 3f 4f 7b 8f bf db 9c 48 3f da 41 71 3f
       1.7591181 -1.1209506 0.7836434 0.94241107
000020 5b 1e 16 bf cd 13 02 c0 61 43 aa bf 7e 37 81 3f
       -0.5864007 -2.0324585 -1.3301812 1.009506
000030 da 35 27 40 94 d8 2a 40 99 54 4d bf 66 37 3b 40
       2.6126618 2.6694689 -0.8020721 2.9252563
000040 a2 ee 7e 3f a5 f8 ad 3f 44 c2 66 40 8f 61 32 40
       0.99582875 1.3591505 3.605607 2.7872045
000050 b4 d4 b7 bf 1e 69 c2 3f b8 da 29 c0 73 5f 92 bf
       -1.4361787 1.5188329 -2.6539745 -1.1435379
000060 00 5f b6 3f c2 9a fb bf 67 04 c5 3f 14 91 c1 bf
       1.4247742 -1.9656603 1.5391968 -1.5122399
000070 1c ee b2 bf d6 20 b3 bf 46 7b 2f 40 dd ec 49 bf
       -1.3978915 -1.3994396 2.741899 -0.7887705
000080 6b f1 b6 3c 79 c6 69 c0 df f9 6b c0 f4 a3 b2 3e
       0.022331914 -3.6527388 -3.687126 0.3489071
000090 70 65 1f 40 2c ac 24 c0 77 94 3d c0 cc f6 ff bf
       2.4905663 -2.5730085 -2.9621866 -1.9997191
0000a0 69 8c e2 bf 0c eb fb bf 74 37 68 bf 3c c2 59 3f
       -1.76991 -1.9681106 -0.90709615 0.85062003
0000b0 a4 c9 24 c0 6a 31 8f 3f 68 4a 65 40 c5 fe ad 3f
       -2.5748072 1.1186955 3.5826664 1.3593374
0000c0 5e 82 98 3f 7d 78 cf 3f 64 22 b2 3f ff 71 8e 3f
       1.1914785 1.6208645 1.3916745 1.1128539
0000d0 de b1 b7 c0 73 c0 8c 3d 54 3d 25 c0 74 d7 b9 bf
       -5.7404623 0.06872644 -2.5818682 -1.4518876
0000e0 a8 fc c0 3f 59 8c c1 3f cf b3 d7 bf a4 9b 8e bf
       1.5077105 1.5120956 -1.6851748 -1.1141248
0000f0 cb 78 af 3f 0c 71 00 40 73 f8 33 c0 bf 37 4e 40
       1.3708738 2.0068998 -2.8120391 3.2221525
000100 cf 84 ac bf e7 73 26 c0 2d e0 e1 be f9 58 eb bf
       -1.347803 -2.600824 -0.44116345 -1.8386527
000110 bb 10 e0 bf 90 c9 93 3f ef 8d 2e bf eb 22 47 bf
       -1.7505106 1.1545887 -0.68185323 -0.77787656
000120 37 76 12 3f e1 da fe 3f 8e e9 a2 3f 00 e5 63 bf
       0.5721163 1.9910547 1.2727525 -0.890213
000130 3d 65 2a c0 4f 1c 1d c0 1a 61 65 3f 30 2a 41 c0
       -2.662429 -2.4548528 0.8960129 -3.0182
000140 a4 1c 93 bf d7 e5 9c bf 5d 2d 66 c0 0e 9f 25 c0
       -1.1493115 -1.2257642 -3.5965188 -2.587833
000150 da a1 a2 3f 6f 7c db bf 6d f7 2b 40 9f 02 94 3f
       1.2705643 -1.7147349 2.6869767 1.15633
000160 3d 73 9a bf 75 28 f8 3f f5 e9 ac bf 17 9c c3 3f
       -1.2066418 1.9387347 -1.3508898 1.528201
000170 95 d1 b9 3f bf cf a6 3f 22 96 34 c0 5f 64 4c 3f
       1.4517084 1.3032149 -2.8216634 0.79840654
000180 11 e2 a0 bd 07 8a 66 40 db 84 62 40 d8 13 72 be
       -0.07855619 3.6021745 3.5393589 -0.23640382
000190 55 d1 1a c0 a9 23 29 40 18 d4 42 40 cd 65 fe 3f
       -2.4190266 2.6428015 3.0441952 1.9874817
0001a0 2c 7a de 3f ca 3d 00 40 63 e4 5a 3f b1 47 5a bf
       1.7381034 2.0037713 0.8550474 -0.8526564
0001b0 78 46 23 40 29 81 a2 bf 33 0b 68 c0 fa 7f be bf
       2.551176 -1.2695667 -3.6256835 -1.4882805
0001c0 26 22 92 bf 8f 12 de bf 25 1b c9 bf 11 f0 96 bf
       -1.1416671 -1.7349414 -1.5711409 -1.1792012
0001d0 8b e6 b2 40 05 64 1d 3b a2 6e 21 40 fe 71 ca 3f
       5.5906425 0.0024015915 2.5223775 1.5816038
0001e0 2b e1 bb bf d3 c8 ca bf 70 1c ee 3f d9 fb a1 3f
       -1.4678091 -1.5842537 1.8602428 1.2654983
0001f0 28 0d ac bf fb 04 05 c0 ee 38 2f 40 82 6b 51 c0
       -1.3441515 -2.078429 2.7378497 -3.2721868

model.2.bias f4 [2]
000000 ad 0d d1 bf dd 9c d1 3f
       -1.6332299 1.6375996
